RecoHGCal/TICL/data/tf_models/MLP_smoothing_CloseByTwoPion_eth10_radius30.onnx (onnx, 199522 bytes, 7 tensors)

0.weight f4 [63]
00000000: 0d77 cabc be7b 5abc fc50 fc3f 3e6e 1d3c
00000010: 5067 903b 8ee6 913f 6533 503f 53bc fa3e
00000020: 22b6 e140 7b4c 9140 7cc5 9abd 0801 86bc
00000030: a860 3c3b 0b8d 7a40 713c 873d 35b2 2b40
00000040: 03cb bb3f 6769 cfbf 53fd c73f 4360 37bb
00000050: 9207 dbbc c237 6d40 7ad7 9dbe 30ca e13e
00000060: 477e ab40 a280 6140 520f 1240 977a a93c
00000070: 1d5e df3c 161a 60bd de5b 583d dbff 3a40
00000080: a6f2 553c 826f 16bc 82c9 b63f f558 553c
00000090: 78ec 02bc 3e70 ae3f d7ff d03b 0256 aabc
000000a0: 590e be3f ce57 b53c 1b30 dc3b 1972 723f
000000b0: 798e 11bd 4895 abbc 7399 fdbb 1ada 35bd
000000c0: 55da f73c 4849 3340 c7d1 3a40 3459 c3bc
000000d0: 15a7 2f3c 752a f3bc 3fa2 c7bb d121 fb3f
000000e0: b869 bb3c 29bd 9c3d 0479 0cbd 145e 3e3c
000000f0: 821f ed40 fbcc a240 2d63 aa40
-0.024714971 -0.0133351665 1.9712214 0.009608803 0.004406847 1.1398485 0.8132842 0.48971805
7.053483 4.540586 -0.075571984 -0.016357914 0.0028744135 3.9148586 0.06603325 2.682752
1.4671329 -1.6204041 1.5624183 -0.002798096 -0.026737008 3.7065282 -0.30828458 0.4409957
5.3591647 3.5234761 2.282185 0.020688338 0.027266556 -0.054712377 0.052821986 2.9218662
0.01305834 -0.009181859 1.4280245 0.013021697 -0.007990949 1.3628004 0.0063781547 -0.020792965
1.4848129 0.022136595 0.006719602 0.9470535 -0.035536263 -0.020945206 -0.00773924 -0.04439745
0.030255476 2.8013477 2.9190538 -0.023846246 0.010720988 -0.029683331 -0.0060923393 1.9619695
0.022877559 0.07653267 -0.034295097 0.01161911 7.410096 5.087522 5.3246064

0.bias f4 [63]
00000000: 4568 61bc b9a6 39bc 04f5 94c0 46cc 0ebc
00000010: ecc5 e0bb 40d0 c1be 77e7 403e 1661 b7be
00000020: 4e91 3b3d cc1f b23f 6685 1abd 6717 2ebc
00000030: 0c5b ed3a 89f7 763f 6945 7d3c c7e1 493f
00000040: 6462 133f 1492 c7be 6447 85c0 cefc 0f3a
00000050: af59 a8bb 0b6e 243f dd4b babd a3c2 a7be
00000060: 6a98 4c3f 072d b33f 3c8e 4c3f 8aa7 b33b
00000070: a985 1e3c 956c 59bc 54ff ab3c b163 813f
00000080: 434b 0b3c 5728 efbb 8244 5cc0 3372 ad3a
00000090: bcba 86bc c01a 03c0 d222 273c db35 23bc
000000a0: 3c7a 72c0 7560 e53b 3e39 fa3b 1fdb 2dc0
000000b0: 29de 05bc 5daa f3bb 560f a2bb e654 16bd
000000c0: f4a7 653c d46e 7b3f b610 843f 4cd0 4cbc
000000d0: 28d2 02bc 755c 0bbc 00ec 2c3b 7a15 353f
000000e0: bc72 ae3b de03 bd3c 3289 66bc 7fe6 e7ba
000000f0: ccf9 ab3f df72 c73f 15d9 0440
-0.01375777 -0.011331254 -4.654909 -0.008715695 -0.0068595316 -0.37854195 0.18838297 -0.35816258
0.04579287 1.3915954 -0.037724875 -0.010625697 0.0018108799 0.9647146 0.015458443 0.78860134
0.5757201 -0.38978636 -4.1649647 0.0005492688 -0.0051376442 0.6423041 -0.09096501 -0.32765684
0.79920065 1.3998116 0.7990453 0.0054826187 0.009675422 -0.013270517 0.020995773 1.0108548
0.0085018305 -0.00729851 -3.4416814 0.0013232887 -0.016446464 -2.0485077 0.010201173 -0.009961571
-3.7887106 0.007000024 0.0076362183 -2.716499 -0.008170643 -0.0074360804 -0.004945676 -0.03670206
0.014017094 0.98215985 1.03176 -0.012500834 -0.0079846755 -0.00850593 0.0026385784 0.70735896
0.005323736 0.023073133 -0.014070796 -0.0017692595 1.3435607 1.5581931 2.0757496

1.weight f4 [256, 63]
00000000: 4142 c2bf ed45 73bd 3d85 d33f 6062 633f
00000010: 3439 833e 79f0 b73e 5c10 0ac0 a752 313e
00000020: 5aed 3440 15bd 8a3f c023 65be 8694 efbe
00000030: 92c9 6a3f 62fa 6f3f c734 db3e 3e9b c4be
00000040: f2d3 93be 14f2 b33f 7c05 5e40 7c78 bb3e
00000050: b1b2 a8be 110c 913f 7d5d a0be d1fa 9940
00000060: e338 c13e bcb2 1d3f add8 48be 853a 883e
00000070: 17d0 de3c 844e 2a3e af53 57bf fb1b 6dbe
00000080: d309 ca3d 3728 e73e f929 9c3e 1eb2 cfbe
00000090: f4d7 8abe e5bf 85bf 0794 01be d8b2 8d3f
000000a0: 2f1b ba3e 62f2 453f 59a7 443f 4429 a2bf
000000b0: 5c16 8b3e 4fa4 7fbe 5605 67bf 2e5b 3abc
000000c0: 6181 053e 0d89 12bd f35c 233e da6a 8d3f
000000d0: 83af 70be ad21 0f3e 9a0d 4f3f f466 c3be
000000e0: c4c8 d9be b5d1 8bbe 6ad5 653e 86cb e1be
000000f0: bb9f 4ec0 27a0 293f 7338 1fc1 e937 2abf
00000100: caec 893d 51a7 b6bf 3522 033f ae63 a93e
00000110: 3322 e0c0 0d9c bbbf b74a c03f cc5f 1340
00000120: 9a79 1a40 383d fd3e b666 32bf f5d0 ca3f
00000130: e1b5 f13f d91e 76bd 0b73 8640 4031 4ac0
00000140: 7b48 953f be85 75bf b4c0 4abe f00c 5a3f
00000150: b0b5 9f3f 9dd4 7dbd 5aa0 a63e 20d2 b73f
00000160: 7193 bb3f da5a 0b40 61fe 5f3f 385b 99bf
00000170: a468 03bd 1212 b6be 0c23 c83f 4df7 583f
00000180: 79d6 323d 905a 39c0 1c4c 80bf b4ca 89be
00000190: cdc7 0fc0 9eff 8f3f ab2c 62bf 4af0 0240
000001a0: 58ba df3f aaa6 a7bd 1b8c 1cc0 45bc 873e
000001b0: 244f 15bf 97fd 35bf 9a70 af3c c2fb b0bf
000001c0: 418d 0a40 b15f 0c40 9434 00bf 3796 81bf
000001d0: 8426 893f cce5 933e ce8f e33f f117 2bbf
000001e0: df64 353f 1050 65be cfd3 3e3f ec29 fe3f
000001f0: ea0b e3be ca72 efc0 aec1 b2be 8bc5 823f
00000200: 11ee 2dbf 5e52 13bf 5519 bc3f e0f3 21c0
00000210: e480 a9bf 558b 0340 a5a1 3e40 e133 193f
00000220: b9c8 8bbd e64c 33bf f8e9 613d 553a 9e3f
00000230: 040f d53d d244 ccbe 5e00 20c0 9462 6cbf
00000240: e58a 4740 6d5f dc3d 1b56 30bf f4ce c6bf
00000250: 5a38 82bf 3f91 ce3f 8ace 80bd abb9 e13d
00000260: 097a 053e 00e6 a6bd 3f95 7bbf f489 6b3f
00000270: 1b78 81be ae70 033f 5325 b8bf 35c3 c73e
00000280: ec12 a33e 2a83 0abf f613 96bf 835a 45be
00000290: 4fec 67bf 8598 a63d 966d 1540 a874 adbf
000002a0: 0ee9 fbbe d7aa 013f d068 90be a4f5 403f
000002b0: 22e7 43bf 25c1 833d 07ee 0abd 6a54 833e
000002c0: a35b a13e 9c98 633e d5b6 513f 7f50 5bbe
000002d0: 84d7 97bd 4f4e 603c c751 dd3f 193b 6c3d
000002e0: 21d3 ebbe 6c4e 1e3d 77ec fbbf 80f3 e3bf
000002f0: 11f6 1ec1 feac 6bbf 660b 2d3f 227f 37bf
00000300: a819 593f bf5e 353f 4f1c 49c0 9977 95c0
00000310: bcff 08bf 62c6 9940 f422 e83f ad5d 933f
00000320: 3295 a1bf 3555 13bf 4080 df3f db6b b7be
00000330: 8ba7 f33f 7e11 18c0 c8dd 17c0 ee3b b33f
00000340: 29aa 08bf 7b83 15bd ccc4 e5bf dc53 debf
00000350: 8db1 6e40 d443 a040 7b15 083f 17dc 753f
00000360: afd6 803c 4a0b d2bf bd1c 48bf 0383 ddbf
00000370: 9d6b ef3f 03be 543f 4983 ea3f 0abf afbf
00000380: fbd8 163f b92b bdbf 24b2 f5bf 5a7a b63f
00000390: 8d93 b43f b4fe f4bd 441b 9f3e 461f adbf
000003a0: b0bb de3e 0e4b fdbf 6184 503f d255 f1be
000003b0: 0301 19bf c389 79be db47 903f 0869 813f
000003c0: ee86 de3f 30d5 9abf 9324 793e cbf4 10bf
000003d0: f7ad 1f3f 9a22 95bf e603 5dbf 3364 9c3e
000003e0: bac9 543f d0bd 60c0 0750 73bf 37d5 89c0
000003f0: 7130 cc3d 615e b240 46e0 0bbe 40ae 01be
-1.5176469 -0.05939286 1.6525036 0.88821983 0.2562958 0.35925654 -2.1572485 0.17316686
2.8269868 1.0838953 -0.22376919 -0.46793002 0.9171382 0.9374143 0.42813703 -0.3839969
-0.2887264 1.4058251 3.4690847 0.3661536 -0.3294883 1.1331807 -0.31321326 4.811867
0.37738714 0.6160085 -0.19613905 0.26607147 0.027198834 0.16631514 -0.84112066 -0.23155205
0.09865155 0.4514787 0.30500773 -0.4056558 -0.27117884 -1.0449187 -0.12654124 1.1070204
0.36348864 0.7732297 0.7681785 -1.2668843 0.27165496 -0.24965023 -0.90242517 -0.011374278
0.13037635 -0.035775233 0.15953426 1.1048234 -0.23504452 0.1397769 0.8088013 -0.38164485
-0.42535985 -0.2730843 0.22444692 -0.4410059 -3.2284992 0.6626 -9.951282 -0.6649156
0.06734617 -1.4269811 0.5122407 0.33083862 -7.0041747 -1.4656998 1.5022801 2.302722
2.413672 0.4946077 -0.69687974 1.5845019 1.888363 -0.060088012 4.2015433 -3.159256
1.1662744 -0.959072 -0.19800073 0.8517599 1.2477322 -0.061970342 0.32544214 1.4361
1.465437 2.1774201 0.87497526 -1.1980963 -0.032082215 -0.35560662 1.5635695 0.8475235
0.04366157 -2.8961525 -1.0023227 -0.26912463 -2.2465699 1.1249883 -0.8834941 2.045916
1.7478743 -0.081860855 -2.4460514 0.26510826 -0.58323884 -0.7109007 0.021415997 -1.382683
2.1648715 2.1933405 -0.5008023 -1.0123967 1.0714879 0.2888626 1.7778261 -0.66833407
0.7085704 -0.22393823 0.74541944 1.9856544 -0.44345027 -7.4827623 -0.3491339 1.0216535
-0.67941386 -0.5754756 1.4695231 -2.53051 -1.3242459 2.0553792 2.978616 0.59844786
-0.06825394 -0.7003921 0.05515477 1.2361552 0.10403255 -0.39896256 -2.5000224 -0.9233792
3.1178524 0.107603885 -0.68881387 -1.5531907 -1.0173447 1.6138076 -0.06289394 0.110217415
0.13034834 -0.08149338 -0.98274606 0.92007375 -0.25286946 0.5134381 -1.438639 0.3901612
0.31850374 -0.5410639 -1.1724842 -0.19272809 -0.90594953 0.081345595 2.3348136 -1.3551226
-0.49201244 0.50651306 -0.28204966 0.7537482 -0.76524556 0.06433324 -0.033918407 0.2565034
0.31515226 0.22226185 0.81919605 -0.21417426 -0.07414153 0.013690545 1.7290581 0.057673547
-0.46059516 0.038649008 -1.9681538 -1.7808685 -9.935075 -0.9206084 0.6759552 -0.71678364
0.84804773 0.70847696 -3.1423528 -4.6708493 -0.5351522 4.8054667 1.8135667 1.1512963
-1.2623656 -0.5755189 1.7461014 -0.35824475 1.9035505 -2.3760676 -2.3729115 1.4002664
-0.53384644 -0.036502343 -1.7950683 -1.7369342 3.7295868 5.00828 0.53157777 0.96038955
0.01572737 -1.6409695 -0.7816885 -1.7305607 1.8704716 0.83102435 1.8321315 -1.3730175
0.58924836 -1.4778968 -1.9194989 1.4256089 1.4107529 -0.11962643 0.3107549 -1.3525169
0.4350257 -1.978853 0.81451994 -0.47135788 -0.5976717 -0.24368958 1.1271929 1.0110178
1.7384927 -1.209631 0.24330358 -0.56623524 0.62374824 -1.1651185 -0.86334074 0.30545196
0.8312031 -3.5115852 -0.9504399 -4.307277 0.09970177 5.574021 -0.13659772 -0.12664127

1.bias f4 [256]
00000000: 8d4d aabe 7e98 e1bf 212c f6bd abe4 a2bf
00000010: ace6 d2bf 2d7f e03d 11b9 43bf b802 9abf
00000020: b0b5 49c0 da62 83c0 e141 42c0 04f9 f0bf
00000030: e9ba 60c0 7897 46c0 fcbd 263f 4500 2fc0
00000040: 8ca4 413f 3b29 e6bf d90a 25bd 7000 9ebf
00000050: 31ec 82bf 7d7e 33bf 2bf0 70bf d172 30c0
00000060: a3d5 30bf ac85 27c0 bc52 02c0 cdda 08bf
00000070: ae6b 0dc0 c6da 8ec0 8373 ba3f 2f65 9fbf
00000080: d534 c4bf b00e adbd 12e5 5dc0 341c 5cbf
00000090: f18d 15c0 f3a7 2ac0 7be7 c4bf f214 cbbf
000000a0: 3cbd 2c3f ff6e f6bf 7d28 56c0 065d c6be
000000b0: 4935 983f cb1e 30c0 ee74 10c0 f932 08c0
000000c0: a09c 11c0 5ea5 9b3f e2bf e3be 1b42 bebf
000000d0: 1c93 09bf 5666 b7bf 551e 89bf dcb0 1ac0
000000e0: 2a25 22c0 695a 19c0 527c 77be 5b72 98bf
000000f0: b742 1540 0582 9abf 7915 eebf 73f4 25bf
00000100: 2103 50c0 2603 57c0 1fd9 37bf b9ec 043d
00000110: 6fec d7bf 2c75 953d fb43 d1bf 2a9b 03c0
00000120: 4f63 1fbf 3253 43bf fe68 09bf b996 6440
00000130: 2d94 8ebf 6c52 84c0 0f4a d7bf 2afc babf
00000140: c49f 53c0 d50c c93f 1104 01c0 b397 22bf
00000150: 9fd0 a0bf 8afe 0cc0 deaf ddbf ad36 043e
00000160: c4cb c0bf 6f61 23c0 1cc1 f2bf d8b3 c1bf
00000170: 124b 8ec0 9427 b6bf 8e64 05c0 9180 1bbf
00000180: bbd9 6abf 8554 6bc0 75f5 9a3e ef7f 013f
00000190: b575 20c0 0c62 5dbf 21e2 0ec0 1b9e a33e
000001a0: 1298 dfbf 96c6 92bf 4f99 973e 9ee8 cc3e
000001b0: f85d 3cbf e9ef 2ac0 e325 29c0 8bdc 25c0
000001c0: 9180 18bf 3d17 25bf 280e ad3d 56b5 963f
000001d0: 2a7b eabf 6b72 81bf 4c55 1f40 1a11 eebf
000001e0: 8e46 d5bf c01b 85bf f023 ecbf 433c 00c0
000001f0: ec67 c1bf 537b 7ebf 6c7e c5bf e47c 35c0
00000200: 69ad 4dc0 4126 a13e 28d3 14bf a7a0 37c0
00000210: 534f 0dc0 ae5c 06bf 2068 86bd a412 7cbf
00000220: e0e8 19c0 91ee 78c0 7b52 dbbf 1fb8 fdbf
00000230: f11b b2bf d8cb d2bf a2dc a7bf fd9a 37bd
00000240: bfcb 2ebf 9a48 47c0 d587 acbe afe5 cd3c
00000250: 9429 853f 28e6 eebf b195 633e ed53 a4bf
00000260: 7629 79c0 c375 7dbf 8a79 eabf a485 1440
00000270: f1a4 62c0 7445 37c0 fd33 33c0 12ac 53c0
00000280: 5029 c5bf c666 12c0 87e0 09bf e638 eebe
00000290: 1e76 86bf bf56 41bf 1b82 3cc0 3b54 bbbf
000002a0: 8310 6b3f bb0c 533e fa47 05c0 d2d7 e7bf
000002b0: 8d99 0ac0 47fc b9bf 571b b6bf 342b 2ec0
000002c0: eb3f b23e 82d5 adbf f15e 09c0 0ca7 59c0
000002d0: a138 1040 8244 a4bf f6e2 a7bf 37c4 fbbf
000002e0: 8b8b 0fc0 8e86 dcbf 05ac 90be 6cb5 66bf
000002f0: 1ec3 08bf 9f3c ef3e 8611 7ebf d80f adbf
00000300: dff7 10bf 388f 85c0 1ed2 5ac0 d459 d6be
00000310: 6374 88be e71b a9bd dfb5 8ebe c169 21c0
00000320: 14e6 29c0 99b1 17c0 6c98 ecbe 9f9b fabf
00000330: 3868 35c0 88b1 1cc0 6b75 95be 3dbd 37c0
00000340: 59aa 03c0 baea f5bf 0fb9 4bbd bc10 bfbf
00000350: 2f5e 85bf 9a17 7740 2a36 263f 9fbf 3abf
00000360: eda6 94be bd1b a2c0 d3e8 233e 7c16 d33f
00000370: b45b 90bf 0583 d53d a437 04c0 4b8d 163c
00000380: a38c 073e 72af 47c0 65ca 7cc0 0bab 6abf
00000390: 513e 03c0 2be3 a93e 1e65 edbf 87fe 29c0
000003a0: 5f4c ffbf 8baa d63c 8290 6abf ba1c b5bf
000003b0: 9ba6 5ac0 0795 983e a461 16c0 1338 bdbe
000003c0: ed14 30bf 093a b4bf 9eaf 36c0 8492 fdbf
000003d0: 144f 65bf 3288 673f 0ef5 6ac0 8d09 3dc0
000003e0: 2e03 82bf 71bf bbbf a094 9dbf 091e 58c0
000003f0: e0d9 69bf 0ce9 4bbf 97d6 e0bf fdf8 08c0
-0.33262292 -1.7624662 -0.12020136 -1.2726034 -1.6476645 0.10961757 -0.76454264 -1.203208
-3.1517143 -4.105817 -3.035271 -1.8825994 -3.511408 -3.102995 0.65133643 -2.7343915
0.75641704 -1.7981333 -0.04029355 -1.2343884 -1.022833 -0.7011488 -0.9411647 -2.7570078
-0.69075984 -2.6175337 -2.0362997 -0.53458863 -2.2096972 -4.4642057 1.4566501 -1.2452754
-1.5328623 -0.08450067 -3.4671063 -0.85980535 -2.3367884 -2.6665008 -1.5383142 -1.5865767
0.6747625 -1.9252623 -3.3462212 -0.38742846 1.1891261 -2.7518795 -2.2571368 -2.1281111
-2.2751846 1.2159841 -0.44482332 -1.4863924 -0.53740096 -1.4328105 -1.0712382 -2.4170446
-2.5335183 -2.3961432 -0.24168518 -1.1909899 2.332197 -1.2070929 -1.8600303 -0.64826125
-3.250191 -3.3595672 -0.71815675 0.03245232 -1.6869029 0.072977394 -1.6348871 -2.0563455
-0.6226091 -0.7629882 -0.5367583 3.5716994 -1.113897 -4.1350613 -1.6819476 -1.4608204
-3.3066263 1.5707041 -2.0158732 -0.63512725 -1.2563666 -2.2030358 -1.7319295 0.12911482
-1.5062184 -2.5528219 -1.8965182 -1.5133009 -4.446664 -1.4230828 -2.0842624 -0.6074305
-0.9173848 -3.6770337 0.30265394 0.50585836 -2.5071843 -0.8647773 -2.2325518 0.31956562
-1.7468283 -1.1466854 0.29609153 0.40021223 -0.73580885 -2.670893 -2.6429374 -2.5915859
-0.59571177 -0.64488584 0.08449966 1.1774089 -1.8318837 -1.0113043 2.489581 -1.8598969
-1.6662157 -1.0399094 -1.8448467 -2.003678 -1.510984 -0.9940693 -1.5429206 -2.8357477
-3.213709 0.31474498 -0.581347 -2.8691804 -2.2079666 -0.5248517 -0.06562829 -0.98465943
-2.4048386 -3.889561 -1.7134546 -1.9821814 -1.3914777 -1.6468458 -1.3114207 -0.044825543
-0.6827964 -3.1138062 -0.33697382 0.025133936 1.0403314 -1.8663988 0.22225071 -1.2838112
-3.8931556 -0.99007815 -1.8318341 2.3206568 -3.5413172 -2.863614 -2.800048 -3.3073773
-1.5403233 -2.2875228 -0.53858227 -0.46527785 -1.0504797 -0.7552299 -2.945441 -1.463508
0.9182207 0.20610325 -2.082518 -1.8112738 -2.165622 -1.4530114 -1.4227093 -2.721387
0.3481439 -1.3580782 -2.1464198 -3.4008207 2.2534564 -1.2833407 -1.3116138 -1.9669255
-2.242892 -1.7228563 -0.2825624 -0.9012058 -0.53422725 0.46725938 -0.9924549 -1.352046
-0.5662822 -4.1737328 -3.4190745 -0.41865408 -0.26651296 -0.08257275 -0.27873132 -2.5220797
-2.6546679 -2.3702147 -0.4621004 -1.9578742 -2.834486 -2.4483356 -0.29191145 -2.8709252
-2.0572722 -1.9212258 -0.049737033 -1.4926982 -1.0419368 3.8608155 0.649264 -0.7294864
-0.29033604 -5.065886 0.16006784 1.6491237 -1.1277986 0.104253806 -2.065896 0.00918896
0.13237242 -3.1200833 -3.9498532 -0.9166724 -2.0506785 0.33181128 -1.8546484 -2.65616
-1.9945182 0.026204368 -0.9162675 -1.4149392 -3.4164188 0.298012 -2.3497095 -0.36956844
-0.6878193 -1.4080211 -2.8544688 -1.9810338 -0.8957379 0.9044219 -3.671207 -2.953708
-1.015722 -1.4667798 -1.2310982 -3.3768332 -0.91348076 -0.79652476 -1.7565488 -2.140197

3.weight f4 [128, 256]
00000000: e694 e2bf 5c0e a0be cac1 acbf 37dc a0bf
00000010: 4136 4bbf fcdf 05c0 95ad 2b40 6ad7 94bf
00000020: 1775 d0c0 0fc4 babe bb15 aec0 1905 b03e
00000030: d0b6 a1bf ee17 603f 2b94 ffbf 2988 ad3b
00000040: f60c 25c0 8303 bcbf 4b5b 57be 4fe4 dc3f
00000050: bf5f 0dbf 36b1 80be 44af dfbe 2605 5ec0
00000060: 8ec2 6bc0 1efd 5ac0 2c8d a9be c4fb d8bf
00000070: 582f e0bf ad5c 1c40 4e7a cbc0 70c7 55c0
00000080: 8753 eabf 4abc 3cc0 2dc7 b040 7b8f 953f
00000090: bcfb 6bc0 5e40 ccbe 336f 4dbe b50d ad3d
000000a0: 48f5 37c0 b218 633f 8d79 e23f 687f b83f
000000b0: 0721 0fc0 d86a 49bf e48a 29c0 9ef2 633e
000000c0: 00c2 fd3e d845 aebf 676d 2240 9855 42c0
000000d0: fa8f d0bd 9bf7 9f3f 4041 6f40 af0a 27c0
000000e0: ca69 6ac0 ef6d 283f dfb6 d3be 2edc a2bf
000000f0: b65e debd 2976 603e a416 b8bf e1fa 3ec0
00000100: 6118 363f d25f 80bf d1cf f3c0 484f 24c0
00000110: c95f 9bbe ecec df3e 4e17 8c3e 70de e7bf
00000120: cdbd 9fc0 6f57 27c0 11ba 0b40 b189 03c0
00000130: 6863 04c0 6d19 8b40 1c18 07c0 7614 9cbf
00000140: 36d2 573f b40f b7bf cdd2 03bf 73d6 3f40
00000150: b31b 223f 4e74 0cbf 9acc b3be 2574 3c40
00000160: 3954 b13e a77c 5a40 ccdc 14be 3d93 3ec0
00000170: 56c4 ef3d fe0d 8dbe a31c b3be 13b5 58c0
00000180: ba9f bcbf d551 63c0 2787 9a3f 669e 82c0
00000190: f65c 70bf dfd5 8ebf 9566 7dbf a130 62c0
000001a0: bafb 2abe 5b07 dabf cde3 b6be c65f 923f
000001b0: 175f 023e 2af3 56bf c576 e63f dd7d 94bf
000001c0: 5608 eabf 9179 78c0 3064 03c0 1cbe cec0
000001d0: 2b8e 50bf 70bf 78bf 1463 ca3f 6787 d8c0
000001e0: 333a 01bf 0890 a33e ccdc 8c3d 36eb 993f
000001f0: e139 55c0 2c58 3140 4242 3540 f8e6 b4bf
00000200: 6728 a2bf b3fd 983f 8400 2fc0 8821 5140
00000210: ad8b 0fbe 424f 8dbe 378b 13c0 7126 1540
00000220: 3f52 9440 e60b 23c0 70ce 88bf 417d 6840
00000230: 9131 b5bf 321d c6bf b2ae 0bc0 297b 68bf
00000240: b3ab 36be 920b e9be e4d1 4bc0 37a4 debf
00000250: ab5d d9bf d8c9 19c0 1764 aabf a030 a73f
00000260: 21c6 5dc0 942a 5bc0 add0 73c0 2c21 fabe
00000270: 52e5 b2bf fb7c 03bf 4549 9cbf c74e e0be
00000280: 06a5 25bd 938c f7bf cbf4 b6bf defa d1c0
00000290: b8b0 bbbf 7837 cbbf bbdf 5dc0 9c76 f6bf
000002a0: 3346 4ec0 1927 953e e7b4 e03e d3ec 8bbf
000002b0: 69ae bbbf 2c8e 07c0 c9d4 d7bf b997 8cc0
000002c0: ba85 fec0 57b8 253f 7cf0 dabf cb4a f2bc
000002d0: d1cb 7fbf ab08 a640 ad41 3640 80b9 9cbf
000002e0: d207 1440 81cf 7abf 9546 dabf 30a0 a3c0
000002f0: b1fd d9bf fc1a c13f a0eb 7bbf ece1 7abe
00000300: 5171 01c0 0e8b 14c0 a045 783e 9736 41bf
00000310: c5d1 b4bf 8563 3ac0 247d 50bf 5ea3 4a3f
00000320: 613c 0f3e 3d85 78c0 f9e7 b1bf cc9a b8bf
00000330: 2653 bac0 a1e2 1c3f 4113 2e40 2720 6abf
00000340: 50ac 9ec0 7d42 44c0 8305 c2bf c576 d43f
00000350: a9d1 2cbf 74c7 04be 0fce 7ac0 99d2 ee3f
00000360: 3f8e ac3e fd36 aabf 915a aec0 28df 47bf
00000370: 6588 0cbf 5605 b3bf 3c9b a73e 2e36 6ac0
00000380: bb4a 13c0 cee7 7cbf 0463 68bf ffe7 bdbd
00000390: 9774 a0bf 0c05 f2c0 27d9 b03f 496a 24c0
000003a0: 6952 26bf c7a5 95c0 cb6a cf3f 16ad 5a40
000003b0: 5bc7 0b40 b6fc b2c0 72f6 cfbe aaa1 10c0
000003c0: baee 46c0 3b10 3ec0 b0b0 7bbf 0cd7 a6be
000003d0: 5bb7 3a40 d2c4 3bc0 324d ac3f df5a 10c0
000003e0: 3d3d a73f a915 89bf 2461 60c0 95f6 f4be
000003f0: 45ab 58bf c43b 343f bda7 9cbf 32e5 15bf
-1.770169 -0.31260955 -1.349664 -1.2567204 -0.7937966 -2.091796 2.6824696 -1.1628239
-6.514293 -0.36477706 -5.4401526 0.3437889 -1.2633915 0.87536514 -1.9967092 0.0052957726
-2.578916 -1.4688572 -0.21030919 1.7257174 -0.5522422 -0.251352 -0.43688405 -3.4690642
-3.6837497 -3.421699 -0.33115518 -1.6951833 -1.7514448 2.4431565 -6.35868 -3.3402977
-1.830674 -2.9489923 5.5243134 1.1684412 -3.6872396 -0.39892858 -0.2006195 0.0844988
-2.8743458 0.8870956 1.7693344 1.4413881 -2.2363908 -0.78678656 -2.6491022 0.2226052
0.49562073 -1.3615065 2.5379274 -3.0364742 -0.10183711 1.2497438 3.7383575 -2.610027
-3.6627069 0.65792745 -0.41350457 -1.2723444 -0.108579084 0.21920075 -1.4381909 -2.9840624
0.7113095 -1.0029242 -7.619118 -2.567339 -0.30346516 0.43735445 0.2736153 -1.8114758
-4.991919 -2.6147115 2.1832316 -2.055279 -2.0685673 4.3468537 -2.1108465 -1.2193744
0.8430513 -1.4301667 -0.5149353 2.997464 0.63323516 -0.54864967 -0.35117036 2.944589
0.3463457 3.4138582 -0.14537352 -2.9777367 0.1170737 -0.27549738 -0.34982786 -3.386052
-1.4736245 -3.5518696 1.2072495 -4.0818357 -0.9389185 -1.1159018 -0.9898465 -3.534218
-0.16697589 -1.7033495 -0.35720673 1.1435478 0.12731586 -0.8396479 1.8004996 -1.160091
-1.8283794 -3.8824198 -2.05299 -6.4607067 -0.8146693 -0.9716711 1.5811486 -6.7665286
-0.5047943 0.31945825 0.06878051 1.2024906 -3.3316576 2.7710066 2.832169 -1.4132986
-1.266858 1.1952423 -2.7344065 3.2676716 -0.14018126 -0.2759953 -2.305372 2.3304713
4.63504 -2.5476012 -1.0688 3.632645 -1.4155751 -1.547766 -2.1825376 -0.9081293
-0.17838936 -0.4551664 -3.1846857 -1.7393864 -1.698171 -2.4029446 -1.3311795 1.3061714
-3.4652178 -3.4244738 -3.8096116 -0.48853433 -1.3976233 -0.5136258 -1.220986 -0.43810102
-0.04044058 -1.9339775 -1.4293455 -6.5618734 -1.4663305 -1.5876303 -3.4667804 -1.9254947
-3.2230346 0.29131392 0.43888018 -1.0931648 -1.4662601 -2.1180525 -1.6861812 -4.393521
-7.953824 0.64734405 -1.710464 -0.02957668 -0.99920374 5.188558 2.8477585 -1.224411
2.3129773 -0.97972876 -1.705279 -5.113304 -1.7030545 1.508636 -0.9840641 -0.24500245
-2.0225413 -2.3209872 0.2424531 -0.7547392 -1.4126517 -2.9123242 -0.8144095 0.7915553
0.13987876 -3.8831322 -1.3898917 -1.442224 -5.82265 0.6128331 2.7199252 -0.9145531
-4.9585342 -3.0665581 -1.5157932 1.6598746 -0.67507416 -0.1296671 -3.9188268 1.8658019
0.33702275 -1.3298031 -5.4485555 -0.78074884 -0.5489562 -1.3986003 0.32735622 -3.6595569
-2.3014362 -0.98791206 -0.90776086 -0.09272765 -1.253558 -7.563116 1.381627 -2.5689871
-0.649695 -4.6764865 1.6204466 3.4168143 2.1840427 -5.5933485 -0.4061771 -2.2598672
-3.1083207 -2.9697406 -0.9831648 -0.32585943 2.9174411 -2.933888 1.3461058 -2.2555463
1.3065563 -1.0709735 -3.505929 -0.47844377 -0.84636337 0.70403695 -1.223869 -0.5855285

3.bias f4 [128]
00000000: 2926 cfbf c789 83c0 a5ec 45c0 8cb2 66c0
00000010: ef35 4bc0 38d5 69c0 c201 8fc0 6ff0 37c0
00000020: d328 87c0 820a 19c0 98ad 15c0 12cb 66bf
00000030: 596f 86c0 1b35 6bc0 d5f1 95c0 5e89 a8c0
00000040: 490d 5fc0 30ce 8cc0 3152 0bc0 6e87 81c0
00000050: 2943 6fc0 b4cd 03c0 a5a8 e2c0 3bdf 80c0
00000060: 5fda 3dc0 3e0a 14c0 dfb5 b6c0 3f4f 97c0
00000070: 6b38 99c0 b79a 9ec0 eb3e 71bf 61c3 89c0
00000080: 94c0 83c0 9f32 69c0 5973 50c0 b002 86c0
00000090: 304f 37c0 951a 76c0 f57d 76c0 82bb b7c0
000000a0: 870a 83c0 2d52 26c0 f26d 71c0 9bdf 8fc0
000000b0: e09e 97c0 284c 37c0 aad0 9cc0 31d5 8ac0
000000c0: a2ea 8ac0 0b88 67c0 bcad 76c0 c656 7ec0
000000d0: 5ca9 19c0 b279 7cc0 b927 afc0 9404 80c0
000000e0: 5e40 8ac0 ce6e d7bf 84bc 0ec0 fc60 52c0
000000f0: 9372 8fc0 4492 10c0 71e7 38c0 70e0 6ac0
00000100: 3b7f 59bf 925f 39c0 6f0c 7cc0 af48 b1bc
00000110: 4b40 98c0 36ba 2ac0 66e6 db3f d558 97c0
00000120: d1bf 50c0 126c 6ac0 03e9 62c0 8955 c0c0
00000130: 742e 6fc0 fa07 ddbf 5c1e 44c0 e456 bdc0
00000140: 52b0 98c0 8317 98c0 2fd0 6bc0 00db 73c0
00000150: b8ae 6fc0 d0c6 a5c0 d4f8 5dc0 6022 2fc0
00000160: 1f48 c3c0 d6a9 70c0 2da9 01c0 90ef bec0
00000170: 7e46 66c0 4e94 26c0 0786 86c0 550c 61c0
00000180: 05a2 80c0 c237 85c0 be49 59c0 53d9 b4c0
00000190: 963b 8ac0 b59d 2dc0 40d5 a9c0 83cd 73c0
000001a0: 227d 86c0 7cc4 9fbf 8927 80c0 602f 8fc0
000001b0: f5a6 72c0 05a5 8fc0 33b6 58c0 7f34 2ec0
000001c0: 8b64 74c0 0113 80c0 4f95 7cc0 68e7 77c0
000001d0: f398 a5c0 405b 82c0 4cdc 043e 4fee a4c0
000001e0: 03a3 58c0 2431 29c0 1995 27c0 dc0d 63c0
000001f0: 7d36 36c0 01cd bac0 3a59 8a3e 304f 2dc0
-1.618352 -4.1105685 -3.0925686 -3.6046476 -3.1751668 -3.6536388 -4.4689646 -2.87405
-4.2237334 -2.3912663 -2.3387203 -0.9015361 -4.2010922 -3.6751163 -4.6857705 -5.2667685
-3.4851859 -4.4001694 -2.1768916 -4.047782 -3.7384741 -2.0594301 -7.0830865 -4.02725
-2.9664533 -2.3131251 -5.709701 -4.7284236 -4.788137 -4.956386 -0.9423663 -4.3051
-4.117258 -3.6437147 -3.2570403 -4.187828 -2.8642082 -3.8453724 -3.8514378 -5.741639
-4.095035 -2.5987656 -3.7723355 -4.4960456 -4.738144 -2.8640232 -4.9004717 -4.3385243
-4.3411417 -3.6176784 -3.854354 -3.9740462 -2.4009619 -3.9449277 -5.473599 -4.000559
-4.3203573 -1.683069 -2.230256 -3.2871695 -4.482736 -2.2589273 -2.889126 -3.6699486
-0.84959763 -2.8964581 -3.938259 -0.021641104 -4.7578483 -2.6676154 1.7179687 -4.7295938
-3.2617075 -3.662846 -3.545472 -6.0104413 -3.7372103 -1.7268059 -3.064353 -5.916857
-4.7715235 -4.75287 -3.6845815 -3.8102417 -3.745039 -5.180519 -3.4683123 -2.736473
-6.102554 -3.760366 -2.0259507 -5.9667435 -3.5980525 -2.6028018 -4.2038608 -3.5163777
-4.019778 -4.1630564 -3.3951259 -5.651529 -4.3197737 -2.7127507 -5.3072815 -3.8094184
-4.202775 -1.2481837 -4.004826 -4.474533 -3.7914402 -4.488894 -3.3861206 -2.721954
-3.8186367 -4.00232 -3.946613 -3.873499 -5.1749206 -4.073639 0.12974662 -5.1540904
-3.3849494 -2.6436243 -2.6184752 -3.547721 -2.8470757 -5.837525 0.270212 -2.7079582

5.weight f4 [1, 128]
00000000: 764a d0bf bccc 13bf 185f cabf 6a49 a3bf
00000010: ec74 c3bf 2eb2 0340 1bd0 9cbf 804d e2be
00000020: d5f5 ccbe 5bb8 cc3f 18ce 2940 93d0 c6be
00000030: 5c05 6dbf d3e4 71bf c808 85bf 7fd9 da3d
00000040: cba6 b43d 80da 6ebf 1cf2 8bbe 5ff5 88bf
00000050: 5a5e 65bf ccd4 4240 3c86 b23f 6fae 9dbf
00000060: c7de dc3f 51a7 3d40 f34f 353e 8a2b 2f3f
00000070: 627c 9dbe fdff aabe 0036 3a40 92d6 82bf
00000080: 1858 013f 8898 523f 3988 c3bf 81f6 1abe
00000090: bc67 2cbf 7c29 61bf cd6d 5fbf f3d1 223f
000000a0: 98fc 7abf 1ca2 f33e a9b4 5fbf e802 8ebf
000000b0: b801 403f e7e1 ccbf 7911 debe 7038 dbbe
000000c0: 3eb9 02bf 53a0 94bf 4132 c43f bc3a d8be
000000d0: aaa3 1240 d9d2 0f3f 9825 203f 3385 f23e
000000e0: d670 02bf d332 a0bf 2db5 0ec0 30f2 a7bf
000000f0: cc04 dfbe e024 16c0 aa81 b33e edc5 3bbf
00000100: 244f 2fbf 1000 d6bf 34e0 38be 3023 4840
00000110: ab89 9fbe 2d27 c4bf 4d53 22bf 5979 8a3f
00000120: 7066 dfbf 3ccc 63bf e7a3 87bf f6c7 66bb
00000130: bbf8 90bf 98b5 0d40 7fb2 f6be aa53 5ebf
00000140: 8660 5fbf 89e3 f6be 2b7e ae3f 85d3 a7bf
00000150: 399e 39bf f566 3ebe c471 ed3f 4fee 31c0
00000160: bd3a 333d d173 7ebf c4c2 4dbf 3b3d 4e3e
00000170: ad3a 883f 7c09 e7bf 7a94 65bf e25b 18bf
00000180: c5ec 3c3e 51e8 c5be 57e5 31bf 1503 b73e
00000190: c82f c7be 411c c8be c837 2ebf 292a 74bf
000001a0: 5dc5 6cbf 9ba7 aebe a68e 83bf 11a5 6dbf
000001b0: 049c 66bf 7fc4 91bf f5be 9a3e b54b 0640
000001c0: 9972 e2be 904b a4bf cc42 e7be 608d 843f
000001d0: 21bc a6be d89e d2be fb9c 6dbf fa44 0bbc
000001e0: a280 9d3f b856 be3e 869e 1d40 389a adbf
000001f0: 03b9 473f d0d8 2b3b 33a3 63bf 92a0 73bf
-1.6272724 -0.57734275 -1.581027 -1.2756779 -1.5270057 2.0577502 -1.2251009 -0.44199753
-0.40031305 1.5993761 2.653204 -0.38831005 -0.925863 -0.94489783 -1.0393305 0.10686015
0.08820876 -0.93302155 -0.27333152 -1.0699881 -0.89597094 3.044238 1.3947215 -1.2318858
1.7255486 2.9633372 0.1770628 0.6842581 -0.3075896 -0.3339843 2.909546 -1.0221732
0.50525045 0.82263994 -1.5275947 -0.15133096 -0.67345786 -0.87953925 -0.8727692 0.6360161
-0.9804168 0.47584617 -0.8738504 -1.1094637 0.7500262 -1.600644 -0.43372706 -0.42816496
-0.5106391 -1.1611427 1.5327836 -0.4223231 2.2912393 0.56181103 0.62557364 0.47367248
-0.50953424 -1.251551 -2.229808 -1.3120785 -0.43558347 -2.3460007 0.35059863 -0.73348886
-0.68480134 -1.6718769 -0.18054277 3.1271477 -0.3115972 -1.5324455 -0.63408357 1.0818282
-1.7453136 -0.8898351 -1.0596894 -0.00352144 -1.1325907 2.2142086 -0.48183057 -0.8684641
-0.8725666 -0.4822047 1.3632253 -1.3111426 -0.72507054 -0.18593962 1.8550344 -2.7801702
0.04375719 -0.9939547 -0.80375314 0.20140545 1.0642906 -1.8049769 -0.8967968 -0.595152
0.18449695 -0.38653806 -0.6949057 0.3574454 -0.38903642 -0.39084056 -0.68053865 -0.9537683
-0.9248865 -0.34112248 -1.0277908 -0.92829996 -0.9008181 -1.1388091 0.30223814 2.0983708
-0.44228056 -1.283556 -0.4516815 1.0355644 -0.32565406 -0.41136813 -0.9281766 -0.008500332
1.2304881 0.37175536 2.4628005 -1.3562689 0.7801668 0.002622176 -0.889209 -0.95166886
