RecoHGCal/TICL/data/tf_models/MLP_smoothing_CloseByPion200PU_eth5_radius15.onnx (onnx, 199522 bytes, 7 tensors)

0.weight f4 [63]
-0.04024533 -0.06056547 3.5174234 -0.035550613 -0.016493399 1.3778242 2.1708522 0.5997431
6.234829 0.04474078 0.040163882 0.14101589 0.0031884392 0.09058681 4.2655997 3.993091
3.4724238 3.8992698 2.780628 0.07682927 -0.093723916 14.862111 2.8536747 0.5912059
0.19170825 0.0013345825 -0.05481296 0.11981209 0.084468275 0.028841488 0.033862688 -0.14496292
-0.0018068408 0.04285931 1.5641532 1.5275044 1.1686337 1.9617575 -0.025732862 0.038702205
1.3014895 0.050335728 -0.08928865 0.054517604 0.17400262 0.010063519 -0.0009989791 0.304013
0.030594273 0.01536177 0.04081367 0.20287605 0.040108804 0.009753651 0.14900622 -0.039718263
-0.04369849 -0.017580194 -0.051901184 0.099134386 8.890386 5.702512 4.876114
00000000: 4ad8 24bd 8013 78bd 771d 6140 859d 11bd
00000010: 2a1d 87bc 8b5c b03f 3eef 0a40 c488 193f
00000020: b883 c740 1c42 373d e282 243d 7866 103e
00000030: 22f5 503b 9485 b93d cb7f 8840 ce8e 7f40
00000040: 313c 5e40 a38d 7940 cff5 3140 aa58 9d3d
00000050: 53f2 bfbd 35cb 6d41 9ba2 3640 4559 173f
00000060: 2b4f 443e 28ed ae3a 8e83 60bd 0b60 f53d
00000070: b4fd ac3d fc44 ec3c 9ab3 0a3d 2971 14be
00000080: 84d3 ecba 3e8d 2f3d 2c36 c83f 4485 c33f
00000090: ca95 953f df1a fb3f b9cd d2bc 3486 1e3d
000000a0: 3597 a63f d62c 4e3d f8dc b6bd da4d 5f3d
000000b0: be2d 323e 75e1 243c 2df0 82ba 98a7 9b3e
000000c0: d7a0 fa3c efaf 7b3c 3c2c 273d bdbe 4f3e
000000d0: 2149 243d c7cd 1f3c 1695 183e 9eaf 22bd
000000e0: 30fd 32bd 5704 90bc 5696 54bd f806 cb3d
000000f0: 053f 0e41 fa7a b640 2009 9c40

0.bias f4 [63]
-0.0037805745 -0.028766904 -3.5949016 0.0040484853 0.012658716 0.14214239 1.3915076 -1.0562135
2.4536448 0.017486269 0.011527283 0.040598013 -0.013782006 0.02329283 1.604179 1.4206337
0.9141054 0.8915375 -5.2069173 0.03471885 -0.03269503 -7.104257 0.36286214 -0.26914722
0.06364108 0.00436839 -0.0020658937 0.03154204 0.018951373 -0.009640708 0.02273881 -0.035291914
-0.02269008 0.01882089 -3.7045643 0.69710916 0.51718664 -4.564257 0.0024545782 0.022840945
-3.4761739 0.020719482 -0.0340315 -0.16871122 0.06063811 0.0004038782 0.0045207175 0.12646116
0.025529765 -0.0007836813 0.016595421 0.07275709 0.0059978045 0.022604037 0.067875005 -0.012428278
-0.02823688 -0.001524151 -0.00030907357 0.051188413 2.7351391 2.0438805 1.2715523
00000000: 84c3 77bb 92a8 ebbc de12 66c0 28a9 843b
00000010: 8166 4f3c c68d 113e ec1c b23f 0132 87bf
00000020: 8408 1d40 5d3f 8f3c eedc 3c3c 1a4a 263d
00000030: eccd 61bc 9bd0 be3c bd55 cd3f 53d7 b53f
00000040: d002 6a3f cd3b 643f 119f a6c0 5a35 0e3d
00000050: 39eb 05bd 1356 e3c0 11c9 b93e aacd 89be
00000060: 4156 823d b624 8f3b f263 07bb 3a32 013d
00000070: e93f 9b3c 0ff4 1dbc be46 ba3c 418e 10bd
00000080: 8ce0 b9bc 442e 9a3c 9517 6dc0 bf75 323f
00000090: 5866 043f 650e 92c0 fddc 203b ef1c bb3c
000000a0: a279 5ec0 e7bb a93c 9d64 0bbd a2c2 2cbe
000000b0: ab5f 783d 9dbf d339 8722 943b 097f 013e
000000c0: cc23 d13c f66f 4dba 1ff3 873c ab01 953d
000000d0: 3b89 c43b 1a2c b93c 0d02 8b3d fa9f 4bbc
000000e0: 0851 e7bc 05c6 c7ba 270b a2b9 f1aa 513d
000000f0: 850c 2f40 f0ce 0240 3ac2 a23f

1.weight f4 [256, 63]
-0.6813494 1.475645 -2.6167662 -0.9093619 -1.760703 0.87240946 -1.115121 -0.092551574
-0.3702847 -0.6327183 0.29672635 -0.3160134 -0.8234728 0.5194349 0.4859958 0.30487806
-2.0318694 1.5531944 -0.5575859 1.9682539 1.601597 2.3145459 0.9265639 -1.9815346
-0.5816875 -0.2875913 -0.7803365 1.9892697 -1.1028364 3.0161226 0.84322256 -0.13206235
-3.071755 -0.8945501 -1.1516862 -2.0675125 0.49727383 -2.020019 2.2631888 1.4529142
0.04573186 -0.421847 1.1094722 2.3748052 1.167257 1.4876112 -2.7097676 -0.82538944
-0.113810115 0.9412229 2.1264846 1.1735026 0.60307 0.047505077 -1.2658094 1.6038184
0.7961836 1.547389 1.1941932 1.3212804 1.4636687 0.43292168 3.2620192 -0.81378317
-1.5396338 -2.9998014 -2.537369 0.7607914 2.241461 -0.49296972 -0.42822477 0.7385629
-1.5401505 1.4626814 3.9801633 -0.076570876 -1.3562844 1.2427396 0.81982774 -0.9348545
-0.7465819 -1.8352624 1.4720459 0.2013662 1.1475219 -1.625079 2.1526573 1.7397759
-1.1159599 2.5312638 0.7522463 0.03891223 0.580109 -1.303538 0.7634546 2.3286657
-0.5715791 -2.8999908 -1.1105559 -2.0457835 -4.573003 -2.3144908 -0.7912964 -1.0836414
-0.15382202 -0.9518275 -1.4640466 0.71823245 -0.5518814 -0.8281834 1.66948 2.1066267
-0.015455878 0.34888864 2.3333519 2.6804626 2.6306677 -0.85973614 -0.81652606 -1.5854261
0.013747898 1.3051625 -2.9729888 5.837822 3.9111047 -1.113246 0.7982443 -1.1609617
-3.521514 -0.05608603 -2.5770125 0.4985147 -0.74989164 2.2530112 -5.911846 0.9348715
-0.37104204 -3.1395373 0.8671609 -3.5064802 -2.830175 -4.5321417 -0.50059 1.278512
-2.6829588 0.40544853 -0.6096726 1.3543627 0.6646 -3.1248817 1.242753 0.76693803
-3.7447758 0.55813813 4.0495567 4.457188 1.8846118 1.1299682 -0.79428566 -0.88323164
-2.147165 -0.29489008 2.827408 -1.7465374 -0.6110887 2.1572385 2.5235066 -1.3312432
4.032066 0.1717344 -1.9888349 -1.273169 2.8262608 1.1976596 -1.9010979 1.0092709
-1.5906429 2.3700185 2.9418652 3.7364106 0.8766038 -0.34797356 -0.61911553 -1.5158443
-1.9135472 0.105297565 0.6684 -1.0942775 3.0445595 1.0340345 -4.2566037 -2.1147776
1.7320096 -0.946433 -0.06321618 -2.3180425 1.843845 -0.8888923 -1.5728681 -0.21451816
-2.472488 -1.4706388 -2.340629 -1.1677681 -1.9095836 2.5415933 1.2941332 -2.7442696
3.596976 1.1818956 2.2903314 -1.5738724 -4.1158905 -3.228792 -1.1282381 -2.673521
-0.84098357 1.111008 2.1037145 1.081139 2.5186634 -1.5356625 -1.4020996 -1.8749893
-0.79403865 0.2902735 -3.7241046 1.7482986 -0.70060825 -2.178227 -1.9886243 -0.4834826
-0.10716549 -2.112022 -1.7677939 2.1101985 -1.299724 0.28043142 -2.69071 -4.89399
-2.7407846 -1.4876091 1.3196173 1.9129317 1.6483744 -0.116083704 0.65557534 1.3403351
4.717124 4.5733743 2.8009565 2.0032794 -2.0392904 3.0004954 -3.3769562 1.798427
00000000: ea6c 2ebf efe1 bc3f 1979 27c0 f1cb 68bf
00000010: b75e e1bf 3a56 5f3f 49bc 8ebf ae8b bdbd
00000020: f595 bdbe d4f9 21bf 84ec 973e 82cc a1be
00000030: 1dcf 52bf b0f9 043f 71d4 f83e fa18 9c3e
00000040: 260a 02c0 13cf c63f f3bd 0ebf beef fb3f
00000050: 2101 cd3f 8521 1440 4b33 6d3f eda2 fdbf
00000060: 79e9 14bf 2b3f 93be 22c4 47bf 64a0 fe3f
00000070: be29 8dbf 2708 4140 6fdd 573f 5a3b 07be
00000080: a297 44c0 3c01 65bf 746a 93bf 2052 04c0
00000090: ad9a fe3e fe47 01c0 16d8 1040 18f9 b93f
000000a0: 5551 3b3d 54fc d7be 2f03 8e3f cffc 1740
000000b0: ad68 953f 0b6a be3f d56c 2dc0 b94c 53bf
000000c0: 4715 e9bd fcf3 703f 5318 0840 5535 963f
000000d0: cc62 1a3f af94 423d 0b06 a2bf ec49 cd3f
000000e0: b0d2 4b3f d810 c63f 53db 983f b71f a93f
000000f0: 7f59 bb3f e9a7 dd3e ecc4 5040 1854 50bf
00000100: b812 c5bf bffc 3fc0 4164 22c0 3ac3 423f
00000110: 1974 0f40 8766 fcbe 4740 dbbe 7512 3d3f
00000120: a723 c5bf 2539 bb3f ffba 7e40 31d1 9cbd
00000130: ba9a adbf 1712 9f3f 3be0 513f a052 6fbf
00000140: fe1f 3fbf e1e9 eabf 006c bc3f f132 4e3e
00000150: ffe1 923f 9702 d0bf 23c5 0940 fab0 de3f
00000160: c6d7 8ebf 3a00 2240 3793 403f 6e62 1f3d
00000170: 0682 143f 55da a6bf c371 433f dc08 1540
00000180: 0253 12bf 7399 39c0 b226 8ebf 1eee 02c0
00000190: 0a56 92c0 9e20 14c0 6792 4abf c3b4 8abf
000001a0: 8583 1dbe f8aa 73bf e165 bbbf 15de 373f
000001b0: 1948 0dbf d403 54bf 85b1 d53f f9d2 0640
000001c0: a73a 7dbc 88a1 b23e a355 1540 b38c 2b40
000001d0: dc5c 2840 ab17 5cbf da07 51bf 3eef cabf
000001e0: dd3e 613c 910f a73f 7345 3ec0 70cf ba40
000001f0: 8a4f 7a40 d87e 8ebf bd59 4c3f 659a 94bf
00000200: 7c60 61c0 77ba 65bd c6ed 24c0 523d ff3e
00000210: e6f8 3fbf 5631 1040 d82d bdc0 bd53 6f3f
00000220: 39f9 bdbe 2eee 48c0 42fe 5d3f 2c6a 60c0
00000230: 9621 35c0 4e07 91c0 ab26 00bf 48a6 a33f
00000240: 99b5 2bc0 f396 cf3e 8113 1cbf c25b ad3f
00000250: 3a23 2a3f 10fe 47c0 8812 9f3f 0d56 443f
00000260: 68aa 6fc0 24e2 0e3f f895 8140 49a1 8e40
00000270: f63a f13f cca2 903f 4e56 4bbf 781b 62bf
00000280: 276b 09c0 d5fb 96be 41f4 3440 8a8e dfbf
00000290: 4f70 1cbf 3210 0a40 2281 2140 2d66 aabf
000002a0: af06 8140 24db 2f3e 2492 febf 34f7 a2bf
000002b0: 75e1 3440 e94c 993f 2d57 f3bf ca2f 813f
000002c0: 309a cbbf 62ae 1740 8547 3c40 5a21 6f40
000002d0: 1b69 603f 9729 b2be 5b7e 1ebf 3007 c2bf
000002e0: 1def f4bf 40a6 d73d 431c 2b3f 4911 8cbf
000002f0: 10da 4240 3e5b 843f 1936 88c0 8458 07c0
00000300: 7eb2 dd3f 6f49 72bf 7c77 81bd cf5a 14c0
00000310: 1d03 ec3f 728e 63bf be53 c9bf a6aa 5bbe
00000320: 3e3d 1ec0 e43d bcbf decc 15c0 6d79 95bf
00000330: 3c6d f4bf 77a9 2240 28a6 a53f 1da2 2fc0
00000340: db34 6640 5b48 973f ca94 1240 a774 c9bf
00000350: 60b5 83c0 87a4 4ec0 1b6a 90bf f81a 2bc0
00000360: b34a 57bf 8335 8e3f 42a3 0640 c362 8a3f
00000370: c831 2140 9790 c4bf 0078 b3bf a6ff efbf
00000380: 1e46 4bbf ba9e 943e bb57 6ec0 40c8 df3f
00000390: 105b 33bf 1268 0bc0 3e8b febf 088b f7be
000003a0: 9579 dbbd 5e2b 07c0 1247 e2bf 7e0d 0740
000003b0: 5b5d a6bf b594 8f3e 9834 2cc0 919b 9cc0
000003c0: 0469 2fc0 fa69 bebf 38e9 a83f f2da f43f
000003d0: effd d23f 4bbd edbd c9d3 273f 1a90 ab3f
000003e0: aef2 9640 1559 9240 df42 3340 bb35 0040
000003f0: bc83 02c0 1e08 4040 0d20 58c0 db32 e63f

1.bias f4 [256]
-2.9648259 -3.3572 -4.1120195 -2.7048125 -4.0016556 -1.6500145 -3.3988516 -0.6990929
-1.9418988 -2.5322158 -0.96221036 -3.2639937 -0.37368378 -2.2241092 -3.9351306 0.02657914
-3.29238 1.8482538 -2.268753 -2.8445976 -3.6633246 -1.9194462 0.9509566 -1.2208198
-2.1800566 -2.585307 -1.1050264 -0.8778621 -3.2813847 -4.3702335 -1.4084243 -2.027533
-1.351788 -0.4309696 -2.0827136 -2.719837 -3.2875578 -2.8953228 -1.6712207 0.12700568
-3.3334517 -3.2927024 -1.7623878 -2.9549003 -2.5321681 -2.3822834 -3.47413 -4.3174043
-1.8616166 -3.4394007 -2.6049619 -4.264982 -3.5758705 -1.7710488 -0.68103456 -2.950189
-0.46049955 -2.587187 -3.9462032 -1.3727798 -3.8416708 -3.0993228 -3.4517183 -0.29404005
-2.6535938 -1.1881672 -0.697333 -3.641378 -2.7812245 -3.5188046 -3.1113057 5.001038
0.33352706 -1.3586421 -3.702467 -2.0621598 -4.364577 -4.0022984 -2.9293098 -2.7215528
1.0033185 -0.5821822 -2.6018555 0.22692415 -1.9687726 -0.26164877 -1.8248215 3.1021209
-3.5741642 -1.9372395 -2.2470107 -2.80422 -3.5630944 -3.943647 -0.59056836 -2.7491333
-0.9204894 -1.2948687 1.6631566 -0.93828195 0.3514376 -2.4275215 0.18647653 -3.9588356
-2.505524 -3.6795125 -1.4771953 -0.4123729 -1.3712901 -3.2436426 -3.2498755 -2.074691
-4.2776265 -3.4432638 -2.234429 -2.4570541 -3.8104942 -1.398313 -3.4493835 -2.1596954
-2.020729 -0.35739365 -4.4398518 -3.9125483 -1.1418815 -3.4177136 -3.1691089 -3.329455
-4.029961 -4.5082445 1.4893396 -3.4876645 -1.2539332 -2.5862567 -1.6614525 -1.2332314
-3.185784 -2.640941 -2.1881497 -3.2039776 3.4912758 -1.2549694 3.8391335 -2.0681992
-4.4627194 -2.5059595 -4.263884 0.049905293 0.19012944 -0.688385 -1.6068045 -3.8219845
-1.3754836 -1.9507092 -0.24892749 -3.52675 -2.9600518 -2.9476843 -1.4639299 -4.616909
-2.0613477 -3.0562484 -2.8660734 -3.870993 -0.8257846 -3.091904 -1.4336971 -3.5514176
-3.3013613 -2.5787125 -1.572434 -3.6248436 -0.97756064 -3.8841445 -4.7261167 -2.9784389
-3.4429288 -1.554422 -3.3034449 -4.513871 -0.13803235 -1.915553 -1.1062429 -1.1924987
-2.9855235 -3.1908505 -2.7024376 -0.5652179 -2.758382 -2.811907 -1.1710863 -3.2989411
-1.7298266 -0.7783696 -3.2997043 -0.60597074 3.951227 -2.8391945 -2.298471 -4.2529106
-3.3930392 -2.925435 2.419885 -1.232481 -3.4155805 -4.40026 -1.9059 -4.0245886
-1.2036215 -0.13896598 -2.6773984 -3.0355518 -2.7457652 -3.5852556 -0.98170906 -1.8456374
-2.817962 -4.10246 -0.0516397 -3.5545154 -4.7468405 5.3207655 -2.7586794 -1.3320094
-3.1006455 -4.4859424 -1.1634461 -2.4313183 -0.5750153 -1.0731326 -3.3500464 -2.5146906
-1.3878641 -3.238615 0.21042173 -1.6155438 -1.3992707 2.6861215 -2.462096 -0.0819941
-1.3243685 1.1347938 -3.0772107 -3.3056326 -2.4434946 -1.4969605 -1.6350209 -0.24926947
-1.1969718 -3.921617 -0.017985905 -0.6764732 -1.8243647 -3.2549546 -3.3051963 -4.400975
00000000: b5bf 3dc0 5ddc 56c0 aa95 83c0 a61b 2dc0
00000010: 900d 80c0 ad33 d3bf c986 59c0 c1f7 32bf
00000020: 2490 f8bf d30f 22c0 6b53 76bf 46e5 50c0
00000030: 7b53 bfbe ce57 0ec0 2ed9 7bc0 7fbc d93c
00000040: 5bb6 52c0 9593 ec3f 4033 11c0 e30d 36c0
00000050: e973 6ac0 6ab0 f5bf e471 733f d343 9cbf
00000060: 0c86 0bc0 ab75 25c0 8171 8dbf 92bb 60bf
00000070: 3502 52c0 f4d8 8bc0 3f47 b4bf 1ac3 01c0
00000080: 6407 adbf 0ca8 dcbe 2e4b 05c0 cf11 2ec0
00000090: 5967 52c0 f84c 39c0 8fea d5bf c70d 023e
000000a0: 4657 55c0 a3bb 52c0 ec95 e1bf 161d 3dc0
000000b0: 0b0f 22c0 5577 18c0 2558 5ec0 2d28 8ac0
000000c0: 7449 eebf 241f 5cc0 b2b7 26c0 bc7a 88c0
000000d0: 10db 64c0 bab1 e2bf 4858 2ebf e6cf 3cc0
000000e0: 99c6 ebbe 7994 25c0 988e 7cc0 40b7 afbf
000000f0: efdd 75c0 4e5b 46c0 f4e8 5cc0 6b8c 96be
00000100: 7bd4 29c0 dd15 98bf 6a84 32bf 560c 69c0
00000110: 95ff 31c0 1834 61c0 a21f 47c0 8108 a040
00000120: 0fc4 aa3e fce7 adbf 38f5 6cc0 6dfa 03c0
00000130: 9daa 8bc0 d412 80c0 d079 3bc0 ec2d 2ec0
00000140: be6c 803f e509 15bf cd84 26c0 ce5e 683e
00000150: be00 fcbf d4f6 85be c093 e9bf 2689 4640
00000160: 1bbf 64c0 77f7 f7bf 06cf 0fc0 5778 33c0
00000170: bd09 64c0 b664 7cc0 7d2f 17bf cdf1 2fc0
00000180: 31a5 6bbf 42be a5bf 51e2 d43f 3f33 70bf
00000190: a1ef b33e 835c 1bc0 b4f3 3e3e 905d 7dc0
000001a0: 815a 20c0 227d 6bc0 bc14 bdbf 8a22 d3be
000001b0: 6f86 afbf d797 4fc0 f6fd 4fc0 bdc7 04c0
000001c0: 51e2 88c0 6f5e 5cc0 e200 0fc0 6040 1dc0
000001d0: 23df 73c0 ecfb b2bf b3c2 5cc0 7338 0ac0
000001e0: a053 01c0 4dfc b6be 4413 8ec0 3167 7ac0
000001f0: 2c29 92bf d2bb 5ac0 aed2 4ac0 ca15 55c0
00000200: 71f5 80c0 8a43 90c0 aea2 be3f e535 5fc0
00000210: e280 a0bf 3b85 25c0 7aaa d4bf 87da 9dbf
00000220: e3e3 4bc0 2d05 29c0 a50a 0cc0 f80d 4dc0
00000230: 1071 5f40 d6a2 a0bf 5db4 7540 605d 04c0
00000240: 99ce 8ec0 a461 20c0 bd71 88c0 7e69 4c3d
00000250: 4bb1 423e 003a 30bf c5ab cdbf 659b 74c0
00000260: d90f b0bf d7b0 f9bf d9e6 7ebe 46b6 61c0
00000270: 7d71 3dc0 dca6 3cc0 0e62 bbbf b8bd 93c0
00000280: 1fed 03c0 9399 43c0 bf6d 37c0 59be 77c0
00000290: 9f66 53bf c1e1 45c0 6383 b7bf 6d4a 63c0
000002a0: 8149 53c0 a009 25c0 8445 c9bf 70fd 67c0
000002b0: 6a41 7abf d395 78c0 593c 97c0 be9e 3ec0
000002c0: f258 5cc0 4df7 c6bf a46b 53c0 a271 90c0
000002d0: 5a58 0dbe d730 f5bf 5e99 8dbf cca3 98bf
000002e0: d112 3fc0 e536 4cc0 bdf4 2cc0 1fb2 10bf
000002f0: 5589 30c0 49f6 33c0 28e6 95bf da21 53c0
00000300: f56a ddbf 3b43 47bf 5b2e 53c0 e620 1bbf
00000310: e7e0 7c40 5db5 35c0 261a 13c0 d817 88c0
00000320: 8e27 59c0 543a 3bc0 65df 1a40 f0c1 9dbf
00000330: df98 5ac0 eece 8cc0 88f4 f3bf 6ec9 80c0
00000340: 4510 9abf 194d 0ebe 7f5a 2bc0 7b46 42c0
00000350: 9eba 2fc0 d474 65c0 4951 7bbf d93d ecbf
00000360: 7d59 34c0 5a47 83c0 2684 53bd 2e7d 63c0
00000370: 1ee6 97c0 b643 aa40 348e 30c0 497f aabf
00000380: fa70 46c0 d78c 8fc0 cdeb 94bf b89a 1bc0
00000390: 3434 13bf 695c 89bf 2967 56c0 b1f0 20c0
000003a0: 88a5 b1bf 7845 4fc0 cb78 573e 24ca cebf
000003b0: 4d1b b3bf 6ae9 2b40 fb92 1dc0 86ec a7bd
000003c0: e884 a9bf ec40 913f 05f1 44c0 7c8f 53c0
000003d0: 3762 1cc0 679c bfbf 5d48 d1bf 7f40 7fbe
000003e0: 5f36 99bf c6fb 7ac0 2d57 93bc 592d 2dbf
000003f0: c884 e9bf 2d51 50c0 5688 53c0 cad4 8cc0

3.weight f4 [128, 256]
-0.52275944 0.698911 -0.3423011 -0.56797427 -1.0957483 -0.73657507 0.47710782 2.6436622
-0.6731342 0.36916292 -0.6181739 -0.38962692 -1.3747438 -0.45878765 -0.077267185 -3.480768
-0.36388496 -3.352532 -2.3304093 0.73202753 -0.594697 0.14934441 -3.3094099 -0.40788284
-0.807618 -0.1240386 -0.79413134 -0.7977206 -1.3271744 -0.10722003 -0.16389312 0.95363003
-3.8933477 -4.9706035 -0.95985067 -0.4242077 1.1532793 1.3106152 -1.2180173 -0.44327012
-0.14855479 0.4539298 -0.8913201 0.25591335 -0.4966234 0.82310754 -0.02288145 -0.0489718
-0.62027264 -0.6736491 -0.70606196 -0.8428481 -0.69618136 -0.8187851 -2.2257762 -0.4416037
-0.92947334 -0.19362772 -0.48609897 0.009496472 -0.30819818 -0.92204475 -0.7128701 -0.73278177
-0.76842505 -0.29731417 1.6149768 0.24661951 -0.82631993 -0.064139456 -0.70487314 -0.4135282
-0.599601 -0.46620667 0.1493704 0.0054470934 -1.1264251 -0.7234718 0.48526058 -0.23950939
-0.3748443 -1.7792612 -1.047242 -1.2857579 -0.77051777 -2.379649 -1.6141282 -2.1931603
-0.0858401 -0.39300898 -1.6767366 -2.257485 -0.5429735 0.9907828 -0.47951007 -0.5576906
-1.3322991 -1.1165153 0.69662565 2.017428 -2.2739155 -0.9837941 -2.4426608 0.14472605
-0.5865726 -0.62448275 -0.81887966 1.1143178 -1.3641359 -1.0981042 -0.576308 -0.26892948
-0.8612809 -1.3328335 -1.1710653 -0.9535971 -0.5044669 1.5276731 -0.18454131 -1.0642308
-0.39806023 -0.8211682 -0.5607132 -1.3184232 -0.48883942 -0.54822445 -0.0024082358 0.591982
-0.9540564 -0.09936913 0.23212123 -0.6952299 -3.1701617 -0.67367786 3.849866 -0.35409552
-0.49315038 -0.6950025 -0.44493413 0.72861934 -1.9491203 -1.1329691 0.5137206 -0.46359086
0.3362945 -0.36127838 -0.31164816 -0.20102517 -3.689951 -0.8524288 -0.6948075 -0.6217451
-2.6936889 -8.105672 -1.9914305 -0.84391856 -2.151524 -0.13006935 -3.4153292 -0.83452827
-0.53993315 -1.566922 -0.8686947 -0.12979028 0.3581504 -0.010362719 -2.481318 -1.052012
-0.409425 -1.2185364 -0.88277644 -0.7934407 -1.0908692 -0.6233223 -0.8362952 -0.6818929
-0.14477144 1.6267524 -0.23145899 0.60049117 0.7911712 -4.0520124 -5.453943 -0.7294685
-0.45053062 -2.2873785 -0.46827662 -0.3215545 0.7312596 1.4718348 0.17221604 -0.5180804
-1.0540016 -1.2655126 0.0015602005 -0.84817916 0.45731127 -2.1872442 0.69004077 -0.3948698
-2.1146376 -0.5646587 -0.98180354 0.48872304 -0.77582705 -0.5327326 -2.0027266 0.049505185
-0.5895366 3.5512056 -1.0507952 -1.7458344 -2.41076 -0.7724037 -2.0508835 0.86463946
0.19637279 -0.8486322 -9.126519 -0.6968931 0.266107 -2.0275128 -1.0297955 -2.931959
-0.53237295 -0.3590524 -0.93848675 1.3699167 0.6914591 -1.0626069 -0.6396966 -0.29480004
-0.48591915 -0.7000809 -2.1554432 -0.19862798 0.40328822 -2.4859228 -0.4306215 0.2876856
-0.4823343 -1.3647062 -1.4905335 -0.14376411 -0.48270234 -1.9762363 -0.5887382 -1.3760207
0.59557164 -0.998678 -0.3914007 -1.1645153 2.6189597 0.37765476 0.32618973 -1.4630826
00000000: 90d3 05bf d5eb 323f 1742 afbe c366 11bf
00000010: 7b41 8cbf 2f90 3cbf 7a47 f43e c331 2940
00000020: 8652 2cbf ec02 bd3e a540 1ebf 2e7d c7be
00000030: 9bf7 afbf 37e6 eabe 423e 9ebd e7c4 5ec0
00000040: 214f babe e28f 56c0 6d25 15c0 2866 3b3f
00000050: 103e 18bf beed 183e 5fcd 53c0 05d6 d0be
00000060: 0ec0 4ebf f307 febd 314c 4bbf 6b37 4cbf
00000070: dae0 a9bf 2d96 dbbd 99d3 27be 1921 743f
00000080: 9c2c 79c0 2f0f 9fc0 c6b8 75bf c031 d9be
00000090: a89e 933f 3dc2 a73f fee7 9bbf 4df4 e2be
000000a0: bf1e 18be 7d69 e83e 8e2d 64bf 1307 833e
000000b0: 6c45 febe 2db7 523f e171 bbbc a796 48bd
000000c0: 30ca 1ebf 4474 2cbf 7ac0 34bf e5c4 57bf
000000d0: f138 32bf e69b 51bf 1e73 0ec0 e119 e2be
000000e0: f7f1 6dbf 5846 46be f7e1 f8be 1797 1b3c
000000f0: 27cc 9dbe 200b 6cbf a87e 36bf 9697 3bbf
00000100: 81b7 44bf 9039 98be 8fb7 ce3f d389 7c3e
00000110: b489 53bf 8c5b 83bd 9172 34bf f8b9 d3be
00000120: 737f 19bf a4b2 eebe 8ef4 183e 887d b23b
00000130: b32e 90bf 7335 39bf 1374 f83e f341 75be
00000140: 98eb bfbe d5be e3bf 070c 86bf b793 a4bf
00000150: a740 45bf 2b4c 18c0 c19b cebf bd5c 0cc0
00000160: efcc afbd 7938 c9be 4e9f d6bf a27a 10c0
00000170: 5000 0bbf f1a3 7d3f 5882 f5be d0c4 0ebf
00000180: c788 aabf f9e9 8ebf 0f56 323f 8a1d 0140
00000190: d587 11c0 eed9 7bbf 8e54 1cc0 1133 143e
000001a0: 9f29 16bf 1ade 1fbf 19a2 51bf f7a1 8e3f
000001b0: 019c aebf ae8e 8cbf ec88 13bf 20b1 89be
000001c0: e87c 5cbf 4a9a aabf 78e5 95bf f11e 74bf
000001d0: be24 01bf cb8a c33f 66f8 3cbe b738 88bf
000001e0: 8dce cbbe 1438 52bf e68a 0fbf 17c2 a8bf
000001f0: 2949 fabe 7058 0cbf 7ed3 1dbb 228c 173f
00000200: 0a3d 74bf 0b82 cbbd 30b1 6d3e 96fa 31bf
00000210: eee3 4ac0 2776 2cbf 3464 7640 024c b5be
00000220: 357e fcbe afeb 31bf 68ce e3be cc86 3a3f
00000230: c67c f9bf 2205 91bf 3183 033f c85b edbe
00000240: cb2e ac3e 7bf9 b8be 5990 9fbe 8bd9 4dbe
00000250: 2828 6cc0 c638 5abf e8de 31bf b02a 1fbf
00000260: 6665 2cc0 d5b0 01c1 32e7 febf 0c0b 58bf
00000270: 92b2 09c0 e630 05be c194 5ac0 a5a3 55bf
00000280: 0f39 0abf e690 c8bf c762 5ebf bee7 04be
00000290: 7d5f b73e 65c8 29bc eacd 1ec0 54a8 86bf
000002a0: 27a0 d1be 00f9 9bbf a3fd 61bf ee1e 4bbf
000002b0: 9aa1 8bbf 0d92 1fbf 7117 56bf 8890 2ebf
000002c0: f73e 14be 6c39 d03f 9603 6dbe cab9 193f
000002d0: 328a 4a3f 16aa 81c0 b386 aec0 73be 3abf
000002e0: f3ab e6be 6964 12c0 f4c1 efbe cba2 a4be
000002f0: d433 3b3f 1565 bc3f 6759 303e eba0 04bf
00000300: 86e9 86bf 51fc a1bf a47f cc3a 4522 59bf
00000310: b424 ea3e cffb 0bc0 83a6 303f 602c cabe
00000320: 3956 07c0 798d 10bf 7a57 7bbf e839 fa3e
00000330: 9a9c 46bf 2a61 08bf ac2c 00c0 f3c5 4a3d
00000340: dfeb 16bf f446 6340 7580 86bf 8077 dfbf
00000350: e449 1ac0 40bc 45bf ad41 03c0 0359 5d3f
00000360: f315 493e f63f 59bf 3906 12c1 9667 32bf
00000370: 2d3f 883e c5c2 01c0 57d0 83bf 37a5 3bc0
00000380: 9849 08bf b7d5 b7be ab40 70bf 6e59 af3f
00000390: 7703 313f 8103 88bf 28c3 23bf 08f0 96be
000003a0: 65ca f8be 8038 33bf c8f2 09c0 2265 4bbe
000003b0: cb7b ce3e 5c19 1fc0 6c7a dcbe 874b 933e
000003c0: 85f4 f6be b1ae aebf cdc9 bebf e636 13be
000003d0: c324 f7be 50f5 fcbf 8cb7 16bf 7221 b0bf
000003e0: 6277 183f 5da9 7fbf ac65 c8be d60e 95bf
000003f0: 099d 2740 f75b c13e 5702 a73e 4a46 bbbf

3.bias f4 [128]
-1.5728713 -4.877093 -4.3289356 -2.8654974 -2.6216753 -2.6235237 -3.8642812 -2.407867
-2.6653862 -2.6536038 -2.842214 -1.8873144 -2.870492 -5.5319743 -4.276858 -3.2016594
-2.072939 -3.870055 -2.1967444 -4.436218 -3.1984537 -3.0043008 -3.5950978 -4.879744
-2.9019563 -3.1133497 -2.275343 -1.7776951 -2.6844282 -4.523469 -3.5646677 -2.6510575
-4.107195 -2.4495413 -3.3681436 -2.6701903 -1.4797488 -3.402667 -3.723381 -3.3723476
-4.7026105 -5.3837447 -3.0672379 -3.9114537 -3.516163 -4.1342993 -2.8671687 -3.4458463
-3.6565475 -3.5254617 -2.8178787 -3.3874662 -2.7028677 -3.3031542 -1.2018089 -3.433513
-2.7635396 -2.8669572 -3.3387399 -2.7602031 -3.9872828 -3.7547607 -3.0236392 -3.0916574
-5.3571153 -1.8446993 -1.9259604 -2.963644 -3.5167415 -2.5486524 -2.9730341 -3.4307504
-2.630653 -3.644145 -3.2310479 -3.916509 -3.597869 -1.2676792 -2.3950076 -1.8295035
-2.158349 -2.6040463 -3.032477 -0.87407 -4.8923225 -3.9485734 -2.6661048 -3.7173882
-2.5715284 -2.421597 -2.6449447 -4.7478 -3.1389291 -2.6298103 -1.116598 -7.6482577
-4.0699673 -3.1526291 -4.8560114 -2.020618 -3.4251287 -4.29651 -2.310214 -2.1241765
-2.6063921 -4.6219044 -3.8759243 -1.7215278 -4.322945 -3.0250814 -3.330684 -3.744881
-4.663182 -3.5133011 -4.5437794 -4.1018295 -4.060969 -4.544862 -2.2002118 -4.121463
-2.50772 -1.065176 -2.0327013 -1.1449404 -2.3387702 -3.1131124 -2.0484657 -3.9527104
00000000: d953 c9bf 2511 9cc0 a486 8ac0 4f64 37c0
00000010: 87c9 27c0 d0e7 27c0 6250 77c0 7e1a 1ac0
00000020: b095 2ac0 a5d4 29c0 d6e6 35c0 8593 f1bf
00000030: 24b6 37c0 ef05 b1c0 05dc 88c0 fde7 4cc0
00000040: 08ab 04c0 fbae 77c0 7697 0cc0 7ff5 8dc0
00000050: 77b3 4cc0 7746 40c0 1516 66c0 dd26 9cc0
00000060: a7b9 39c0 1f41 47c0 389f 11c0 838b e3bf
00000070: accd 2bc0 42c0 90c0 8423 64c0 edaa 29c0
00000080: 246e 83c0 49c5 1cc0 aa8f 57c0 66e4 2ac0
00000090: 6968 bdbf 4cc5 59c0 e04b 6ec0 8bd4 57c0
000000a0: c97b 96c0 a347 acc0 a04d 44c0 4255 7ac0
000000b0: d108 61c0 2e4c 84c0 b17f 37c0 bf88 5cc0
000000c0: e004 6ac0 2aa1 61c0 2058 34c0 3fcc 58c0
000000d0: c9fb 2cc0 e166 53c0 e0d4 99bf adbe 5bc0
000000e0: d5dd 30c0 3a7c 37c0 eaad 55c0 2ba7 30c0
000000f0: a42f 7fc0 004e 70c0 4e83 41c0 b7dd 45c0
00000100: 7d6d abc0 1b1f ecbf df85 f6bf 58ac 3dc0
00000110: 4b12 61c0 1f1d 23c0 3146 3ec0 6a91 5bc0
00000120: 9e5c 28c0 ac39 69c0 7dc9 4ec0 15a8 7ac0
00000130: 7c43 66c0 5043 a2bf ce47 19c0 2c2d eabf
00000140: 6422 0ac0 b2a8 26c0 1a14 42c0 0dc3 5fbf
00000150: e88d 9cc0 6db5 7cc0 76a1 2ac0 b0e9 6dc0
00000160: ec93 24c0 72fb 1ac0 c646 29c0 faed 97c0
00000170: 37e4 48c0 d04e 28c0 afec 8ebf 87be f4c0
00000180: 2c3d 82c0 adc4 49c0 7264 9bc0 ce51 01c0
00000190: 4f35 5bc0 037d 89c0 8cda 13c0 82f2 07c0
000001a0: 21cf 26c0 a4e6 93c0 250f 78c0 065b dcbf
000001b0: 9155 8ac0 ef9a 41c0 ed29 55c0 21ac 6fc0
000001c0: c938 95c0 edd9 60c0 a466 91c0 3042 83c0
000001d0: 75f3 81c0 826f 91c0 45d0 0cc0 06e3 83c0
000001e0: 7c7e 20c0 b057 88bf c717 02c0 688d 92bf
000001f0: 69ae 15c0 3c3d 47c0 101a 03c0 35f9 7cc0

5.weight f4 [1, 128]
-2.6795282 0.030281493 0.059498373 -0.83790255 1.059149 -1.330373 -0.98415613 -1.0998753
-0.7747919 -0.2797228 -1.1253835 -0.59469926 -1.6909372 0.024853129 -0.27705762 -1.4100021
-1.7247775 -0.25616682 -1.3332516 -0.0074750306 -0.24288653 -1.2912753 0.0026055595 0.012440243
-0.5860674 -0.25430036 -0.384994 -1.9650812 -0.4790002 0.5945433 -0.9170839 -1.2881839
-0.53090507 -0.44880983 -0.35143542 1.7699158 -1.8831615 -0.5638333 -0.7491679 -0.5670842
0.2504594 0.028084008 -1.1820097 -0.19141687 -0.66089875 -0.07308855 -0.7805821 1.2322767
-0.29320472 -1.4579748 -0.5192428 -0.56577545 0.48813882 -0.62817657 -3.0315835 -0.5875777
-0.88140047 -0.264204 -0.32087016 -0.93138516 -0.14926983 -0.44491288 -0.94488496 -0.44887862
-0.26740447 -1.2394733 -2.325876 -0.7920956 -1.101997 -1.7598072 -0.4077256 -0.340939
-1.4872363 -0.25544637 -0.3998456 -0.022262951 0.054454636 -2.5716999 -0.58009034 -1.7662623
0.06909699 -1.0402259 -1.070828 0.36862037 -0.027193917 -0.6387893 -0.9986448 -0.3767576
-1.6138608 -2.0044723 -1.3915559 -0.12292307 -0.6937946 -0.53006643 -2.2562494 0.054176927
0.06046175 -1.2525 0.3009858 -0.24451531 -0.65098184 -0.2807219 -1.3788232 -2.0977297
-0.4334322 0.12196871 -0.40113708 -2.3702855 -0.5566194 -0.63887095 0.10725739 0.05357279
0.22654378 -0.40555874 0.282661 0.44188094 -0.074912645 -0.35973883 -0.26756534 -0.5946106
-1.0487868 -2.6834414 -2.1479886 -1.5028081 -1.4131049 -1.0025705 -1.5306417 -0.0029298489
00000000: 647d 2bc0 e510 f83c 91b4 733d c880 56bf
00000010: 3292 873f aa49 aabf a8f1 7bbf b7c8 8cbf
00000020: c358 46bf d437 8fbe 910c 90bf 363e 18bf
00000030: a170 d8bf ca98 cb3c 7fda 8dbe f37a b4bf
00000040: 82c5 dcbf 4c28 83be fda7 aabf 1af1 f4bb
00000050: 3fb7 78be 8248 a5bf 09c2 2a3b 29d2 4b3c
00000060: 8308 16bf a833 82be ef1d c5be c887 fbbf
00000070: 843f f5be fd33 183f 03c6 6abf 36e3 a4bf
00000080: 65e9 07bf 67ca e5be 58ef b3be 9a8c e23f
00000090: 700b f1bf 6157 10bf 78c9 3fbf 6e2c 11bf
000000a0: 373c 803e 6f10 e63c 184c 97bf c902 44be
000000b0: a930 29bf 73af 95bd 3ad4 47bf 3ebb 9d3f
000000c0: ee1e 96be eb9e babf 19ed 04bf a9d6 10bf
000000d0: 55ed f93e 2ed0 20bf 7705 42c0 7e6b 16bf
000000e0: 76a3 61bf bf45 87be 1849 a4be 426f 6ebf
000000f0: 31da 18be 9fcb e3be fbe3 71bf 6bd3 e5be
00000100: 3de9 88be 10a7 9ebf 27db 14c0 c7c6 4abf
00000110: 3d0e 8dbf 5d41 e1bf 69c1 d0be 8e8f aebe
00000120: c25d bebf dec9 82be 90b8 ccbe cb60 b6bc
00000130: d30b 5f3d bb96 24c0 cd80 14bf e214 e2bf
00000140: b982 8d3d 1f26 85bf e410 89bf cfbb bc3e
00000150: c7c5 debc b287 23bf 30a7 7fbf 5fe6 c0be
00000160: fe92 cebf 4649 00c0 811e b2bf 17bf fbbd
00000170: 869c 31bf 6fb2 07bf 6466 10c0 a0e8 5d3d
00000180: bda6 773d ec51 a0bf d01a 9a3e 3962 7abe
00000190: bfa6 26bf c8ba 8fbe 477d b0bf 3441 06c0
000001a0: d3ea ddbe bbca f93d d761 cdbe c2b2 17c0
000001b0: 9c7e 0ebf 0c8d 23bf c3a9 db3d 246f 5b3d
000001c0: 18fb 673e 65a5 cfbe f1b8 903e 383e e23e
000001d0: cd6b 99bd b02f b8be 53fe 88be 6638 18bf
000001e0: a53e 86bf 81bd 2bc0 a578 09c0 045c c0bf
000001f0: 9fe0 b4bf 3b54 80bf 11ec c3bf b502 40bb
